…
:1585904575595,"user_tz":-540,"elapsed":474,"user":{"displayName":"김지훈","photoUrl":"","userId":"15691826267811084694"}},"colab":{"base_uri":"https://localhost:8080/","height":454}},"source":["print(simple_GRU_model.summary())\n","print(simple_GRU_model.layers[1].name)"],"execution_count":0,"outputs":[{"output_type":"stream","text":["Model: \"sequential\"\n","_________________________________________________________________\n","Layer (type)                 Output Shape              Param #   \n","=================================================================\n","gru (GRU)                    (None, 64)                19584     \n","_________________________________________________________________\n","dense (Dense)                (None, 32)                2080      \n","_________________________________________________________________\n","dropout (Dropout)            (None, 32)                0         \n","_________________________________________________________________\n","dense_1 (Dense)              (None, 16)                528       \n","_________________________________________________________________\n","dropout_1 (Dropout)          (None, 16)                0         \n","_________________________________________________________________\n","dense_2 (Dense)              (None, 8)                 136       \n","_________________________________________________________________\n","dense_3 (Dense)              (None, 1)                 9         \n","=================================================================\n","Total params: 22,337\n","Trainable params: 22,337\n","Non-trainable params: 0\n","_________________________________________________________________\n","None\n","dense\n"],"name":"stdout"}]},{"cell_type":"code","metadata":{"id":"sN5Nq15Uul1a","colab_type":"code","colab":{}},"source":["# GRU layer만 고정\n","simple_GRU_
…
